model.pth (torch, 4105 bytes, 4 tensors)

fc.0.weight f4 [64, 4]
000000 af 4b 8c be 27 1d 91 be fc 72 fc 3e 1c 60 98 3e
       -0.27401492 -0.28342554 0.49306476 0.29760826
000010 b4 9f 8e 3d de 39 fa 3e fc e5 1d 3d 80 8c 40 be
       0.06964055 0.48872274 0.03854941 -0.18803596
000020 f0 11 01 3e e1 5e c7 3e 53 56 ec 3e 4f 39 fc 3e
       0.12604499 0.38939574 0.4615961 0.49262473
000030 79 88 b2 bd b5 ba 4b bd 9e af a2 3e 59 29 f2 3d
       -0.08717436 -0.049738605 0.3177461 0.11824293
000040 0d 68 af 3e 8b af 17 be c8 f2 c7 bd 4a be 9c 3e
       0.34259072 -0.14813058 -0.09763104 0.3061393
000050 b3 65 49 3e 24 dd 3e be 8a 12 41 3e a4 89 c4 3e
       0.19667701 -0.18639046 0.18854728 0.3838626
000060 39 0b dd 3e 54 92 ae bd c8 81 b6 3e 71 c3 b2 be
       0.43172625 -0.085240036 0.3564589 -0.34914735
000070 7a 90 ac 3e 7c 4c eb be 62 14 81 be 34 f2 21 be
       0.33703977 -0.4595679 -0.25210863 -0.1581505
000080 6b f3 db 3e 27 3a 7f be a1 03 f0 3e 0b b7 2b 3e
       0.4295915 -0.24924527 0.4687777 0.16769044
000090 3a f3 d6 3d a1 5e 56 3e 09 74 b3 bd 0d 91 86 3e
       0.104956105 0.20934536 -0.08762366 0.2628254
0000a0 94 7e 42 be 18 85 d7 be 34 72 34 be a0 ab 90 be
       -0.18993598 -0.4209373 -0.1762169 -0.2825594
0000b0 e8 db 32 3e ce 71 ed 3e 26 e9 c1 be d0 2b f7 be
       0.174667 0.4637589 -0.3787319 -0.48275614
0000c0 64 e7 fd 3e 3e 6e cd 3e 59 39 2e bc 1e f9 e8 be
       0.495906 0.4012317 -0.01063379 -0.4550256
0000d0 4c 60 bc 3c e2 92 85 3e 0a 72 bd be 68 53 e5 bd
       0.022995137 0.26088625 -0.37001067 -0.11197549
0000e0 10 92 cf be e6 5c cb 3e a1 68 3c be 71 90 b2 3e
       -0.40541124 0.39719313 -0.18399288 0.34875825
0000f0 bc 14 1d be 30 92 11 3e 58 5b cd be 6c d2 2f bd
       -0.15339941 0.14215922 -0.40108752 -0.042925283
000100 e2 5b 4e be 15 54 c0 3e 3e 8c 48 be e3 b1 58 3e
       -0.20152238 0.3756415 -0.19584748 0.21161608
000110 de 04 bf be 45 e5 80 3e fc a8 76 3e 88 d9 a7 be
       -0.373084 0.2517492 0.240879 -0.3278315
000120 a8 d6 91 be 55 cd d1 be 6e 04 69 be 85 a9 39 3e
       -0.28484082 -0.40976968 -0.22755596 0.18131073
000130 8e 4f e4 be 7c 6d f2 be ce f8 b6 3e e5 50 42 3e
       -0.44591945 -0.47349155 0.35736698 0.18976171
000140 fd 4c a3 3e 52 eb ff bb 05 fd 38 be 09 8b c6 3e
       0.31894675 -0.007810035 -0.1806527 0.3877795
000150 91 e0 15 be 15 72 07 be c3 e8 a6 3e b0 71 cf 3e
       -0.14636447 -0.13227113 0.32599458 0.40516424
000160 14 b6 c1 be 2c 82 4f 3e 20 31 7a be fc ff 58 be
       -0.37834227 0.202645 -0.24432802 -0.211914
000170 1a 99 b4 3e 29 de 7f be ea 65 c9 bd ca 7b c2 bc
       0.35273057 -0.24987091 -0.09833892 -0.023740668
000180 48 fc 11 3e 19 86 b6 3e 22 04 5a 3e a6 a9 f2 3e
       0.14256394 0.35649183 0.21290639 0.47395056
000190 96 c5 80 be dd 81 4a 3e 10 80 da be 8e e7 fb 3d
       -0.25150746 0.19776101 -0.4267583 0.12300025
0001a0 67 43 91 3e 4a b8 e0 3d a6 e3 b0 3e b3 bd bc bd
       0.28371736 0.1097265 0.34548682 -0.0921587
0001b0 a7 40 01 3f 47 70 c9 3d 2b d8 b7 3d 88 ed c3 3e
       0.50489277 0.09835868 0.08976778 0.3826716
0001c0 8c 4b 5f 3e d6 6a be 3e 3a a8 9b be a4 a7 40 be
       0.21806163 0.37190884 -0.30401784 -0.1881395
0001d0 7e 29 c1 be 36 ed ca 3e 17 3c 50 be 3c 13 f1 3e
       -0.3772697 0.39634103 -0.20335422 0.47084987
0001e0 4e c4 cc be 39 5c c7 bd 0a ef e6 be c5 93 9d bd
       -0.3999352 -0.09734387 -0.45104247 -0.076942004
0001f0 37 f2 f5 be 87 72 ba be c4 1f 99 3e 4b 0c 01 be
       -0.48036358 -0.36415502 0.29907048 -0.12602346
000200 18 78 f6 be f2 34 a1 be 60 06 f6 bd 2c 21 8b 3c
       -0.481385 -0.31485707 -0.12012935 0.016983591
000210 a6 57 70 bd b5 0b b7 be b6 ea 8e 3e c5 3d 9e 3e
       -0.058677338 -0.3575112 0.27913445 0.309065
000220 48 b1 a3 be a8 10 fa bd a0 bc 0a 3e 88 d9 3e be
       -0.31971192 -0.12210208 0.13548517 -0.18637669
000230 b1 a6 8b 3e 6a 04 56 be 0a 7a cc 3e 1c 8f 80 3d
       0.27275613 -0.20900121 0.39936858 0.06277296
000240 ab a5 b9 be f7 22 b2 3e 00 4b ff 3e e0 e0 d2 bd
       -0.36259207 0.347923 0.49861908 -0.10296798
000250 38 3e d2 3c 5c 15 da 3e d1 ec 0b bd 40 d1 f3 bd
       0.025664434 0.4259442 -0.034161393 -0.11905146
000260 eb cc eb be 48 b1 e2 bd 33 a2 13 3e b2 a2 b2 3e
       -0.46054778 -0.1106897 0.14417343 0.34889752
000270 b4 f5 8e 3e 28 d1 6d 3d 5a bc cb be 78 78 cc be
       0.27921832 0.058060795 -0.39792138 -0.3993566
000280 2c 7b f6 be 80 20 eb bd b6 45 d2 be 92 69 e9 be
       -0.48140848 -0.11480808 -0.4106881 -0.45588356
000290 38 c8 aa be f6 80 df 3b 3c c7 99 be a2 df aa 3e
       -0.3335588 0.0068207933 -0.30034816 0.33373743
0002a0 34 e3 80 bd cc 62 a1 bd a8 d6 a5 be 96 82 dc be
       -0.062933356 -0.07880172 -0.32390332 -0.4306838
0002b0 5c 95 1c be 44 ea 1e 3e dc 40 5f be f6 fa ac be
       -0.15291351 0.15519053 -0.21802086 -0.33785218
0002c0 74 d6 c5 be fe 2c c3 be ee 76 94 be 9c 3c 24 bd
       -0.38640177 -0.38120264 -0.28996986 -0.040096864
0002d0 e0 24 7b 3e 9c 0d aa 3d 06 41 ac be 80 d4 7d be
       0.24525785 0.08303377 -0.3364336 -0.24788094
0002e0 fe 1e e7 3e 20 77 12 be 8c 9c 1b 3d c0 d6 c2 bd
       0.45140833 -0.14303255 0.03799109 -0.095136166
0002f0 9c 45 96 3e 0f 29 8d bd f8 c1 f0 be b9 59 69 3d
       0.29349983 -0.06892597 -0.47022986 0.05697033
000300 ec 7f 9a bc bc dd 01 bd 52 01 df be 90 d6 d4 be
       -0.018859826 -0.031705603 -0.43555695 -0.41569948
000310 b0 9f f0 3e 37 53 bd 3e 09 ee fa 3c d9 40 8b 3e
       0.46996832 0.3697755 0.030631082 0.27197912
000320 b8 c6 3a be 14 5d 86 bd ac 17 78 be dc 69 40 be
       -0.18239868 -0.06560722 -0.2422778 -0.18790382
000330 60 be b3 be 0a d5 e3 3e 4a d9 fa 3d 0c 7d e3 3d
       -0.35106182 0.44498473 0.12248476 0.11107835
000340 84 a5 da be 98 3c f0 3e 7c a2 83 bd 8e 47 a4 be
       -0.42704403 0.4692123 -0.06427476 -0.32085842
000350 5c eb 82 3d d8 6b e9 3c ae 6c fe be c8 9a 39 be
       0.063925475 0.028493807 -0.4969229 -0.1812545
000360 0b 7d 86 be e4 72 3f be b2 e4 93 3d 0d 0d bb 3e
       -0.26267275 -0.18696171 0.072213545 0.36533394
000370 a8 6c ff bd 6e f5 31 3b fa a3 cf 3d 22 38 91 3d
       -0.124718964 0.0027154344 0.10138698 0.070907846
000380 51 8c ee 3e 79 2a d9 bd 4d 20 37 bb 33 56 47 3e
       0.46591428 -0.10603804 -0.0027942837 0.19466476
000390 bc 5c ff 3e 60 3b 02 be 8e 61 b3 be 5c 1a 8e bd
       0.49875438 -0.12717962 -0.35035366 -0.069386214
0003a0 89 e9 5b 3e e9 59 35 bd df 86 96 be f2 dc 9f 3e
       0.21475805 -0.044275198 -0.29399773 0.31223255
0003b0 dc 70 27 bc 94 22 64 bd 57 42 e9 3e 04 fc cb be
       -0.010219779 -0.05569704 0.45558426 -0.3984071
0003c0 40 86 ea bc ef f0 23 be f6 66 e6 be fc 95 47 3e
       -0.028628469 -0.16009878 -0.45000428 0.19490808
0003d0 62 98 95 be 88 29 e8 bd 52 b8 db be 74 eb a5 be
       -0.2921782 -0.113360465 -0.42914063 -0.324062
0003e0 b4 a5 80 3e dc d6 bd bd 14 8b b8 bd dc 27 1e be
       0.2512642 -0.09269497 -0.09010902 -0.15444893
0003f0 a7 9a ab be 56 0c c2 be 19 17 b4 3c c1 c9 42 3e
       -0.33516428 -0.37900037 0.02198367 0.19022276

fc.0.bias f4 [64]
000000 78 79 cb 3e 0e 1a d2 be 6f b0 b2 3e 9f 6d 74 be
       0.3974111 -0.41035503 0.34900233 -0.23869942
000010 c9 23 05 3d 52 f8 83 be 9e b0 5b be 28 e6 e7 bd
       0.03250483 -0.2577539 -0.21454093 -0.11323196
000020 de 07 b3 be 5b 0b 70 be 40 0d 99 be ec 9b 27 3a
       -0.3496694 -0.23441832 -0.2989292 0.00063937786
000030 fb 14 38 3e 42 e7 93 3e 20 61 38 3e 0c 6b 16 be
       0.17976753 0.28887373 0.180058 -0.14689273
000040 25 48 4a be c5 6b c2 3e da 87 cd be 15 89 50 be
       -0.19754083 0.37972847 -0.4014271 -0.20364793
000050 86 d4 38 3d a4 4b 19 3e 68 e0 d9 bd bb 8f 77 3d
       0.045124553 0.14970261 -0.10638505 0.060439806
000060 a8 a6 67 be bb 7a 9c be 1e 77 8c 3d e4 45 e8 be
       -0.22622168 -0.30562386 0.06858657 -0.45365822
000070 b4 65 9a bd 60 01 3b be a7 5f a3 3e 76 47 ed bc
       -0.075389296 -0.18262243 0.31908914 -0.02896474
000080 32 76 f3 be db 5c f7 be 7a 30 d1 be 0b 08 f2 3e
       -0.47551113 -0.4831303 -0.40857297 0.4727176
000090 f0 29 9b bd 02 5a e6 3d 83 22 c8 be c0 2f d1 be
       -0.07576358 0.112476364 -0.3908883 -0.40856743
0000a0 90 6c 29 be a0 a1 49 3e 26 b8 82 3e 60 f9 91 3e
       -0.1654532 0.19690561 0.2553112 0.2851057
0000b0 e8 17 6b bd 50 5d d2 3d d4 ad bf be 2e d2 dd 3e
       -0.057395846 0.10271704 -0.37437308 0.43324417
0000c0 c8 01 f3 bd 04 55 39 bd 5c 27 aa 3d d8 fe 84 be
       -0.11865574 -0.045247093 0.083082885 -0.2597568
0000d0 ac 4b 7f be b0 77 d2 be f5 5c 90 be d2 1d 1b be
       -0.2493121 -0.4110694 -0.2819592 -0.15148094
0000e0 d0 9c d5 be e0 db 92 3e 58 18 e1 bd ca bc d5 3e
       -0.417212 0.28683376 -0.10990971 0.41745597
0000f0 a7 4c e7 3e e2 cf b6 be 58 03 e4 bd 30 b7 cb be
       0.4517567 -0.35705477 -0.1113345 -0.39788198

fc.3.weight f4 [2, 64]
000000 f4 21 09 3d b8 4f c7 bc bd 89 ae 3d de d0 b5 3d
       0.033479646 -0.024330005 0.08522365 0.08877729
000010 83 2f 9f bd 4d 56 3d 3d 17 ef 1a bc a4 1f 28 bd
       -0.07772734 0.04622488 -0.0094564175 -0.0410458
000020 4c 84 8e 3d a5 07 ab bd ec 0e 96 3d ec c5 b6 3a
       0.069588274 -0.083510675 0.07327065 0.0013944483
000030 d0 bc af 3d 68 79 d5 3c 2e 59 e0 bd a0 2c c8 bc
       0.08580935 0.026058868 -0.1095451 -0.024435341
000040 12 c0 16 3d 96 aa 6f bd 6c 36 55 bd 2f 14 76 3d
       0.036804266 -0.058512293 -0.052053854 0.060077842
000050 71 01 ec 3c 1c 83 7c bb f8 87 d0 3d 44 0e 52 bd
       0.028809281 -0.0038530296 0.10182184 -0.051283136
000060 30 2d 90 bd 39 c2 55 bd 4c 31 38 3d a8 c8 d5 bd
       -0.07039869 -0.05218718 0.04496889 -0.10438663
000070 1c b5 ab bc c6 f4 60 bd b4 c7 8d bd f3 b0 b0 bd
       -0.020960383 -0.054920934 -0.06922856 -0.086275004
000080 0e 1f 85 3d c5 ae f8 3d 28 f9 da 3d 09 ea 9b bd
       0.06500064 0.1214271 0.10692054 -0.07612998
000090 96 03 d7 3c 2e f6 fc 3c 03 7e 94 3c 9a e9 b4 3d
       0.026246827 0.030879106 0.018126493 0.088336185
0000a0 2e ed a1 3d 91 8a b4 bd 4c e4 23 bd b8 c7 b2 bd
       0.079065666 -0.08815492 -0.040012643 -0.087294996
0000b0 e8 dc 34 bd 4e 52 ec 3d e4 4f 5c bd b1 f8 0a 3d
       -0.044155985 0.11539136 -0.053787127 0.033928577
0000c0 e8 e8 51 bc c4 11 3a 3d 4c cd f4 bd a0 25 20 bd
       -0.012811877 0.0454271 -0.1195322 -0.039098382
0000d0 50 1f 1c bd ec a4 ae ba c3 ff 34 ba c7 18 86 3d
       -0.0381158 -0.0013324297 -0.00069045665 0.06547695
0000e0 81 cd 56 3c 85 af 87 3d c7 b4 51 bd d0 c5 67 3d
       0.013110519 0.066252746 -0.051197793 0.056585133
0000f0 4c 99 af 3d fc b8 3e bc d0 00 fb 3d 3c f5 f9 3c
       0.08574161 -0.011640783 0.12256014 0.030512445
000100 62 28 c0 3d 3e 30 da bd 76 34 3a bd 58 e4 fa bb
       0.093827024 -0.10653733 -0.045460187 -0.007656615
000110 01 84 b9 bd 53 f0 b0 bd e8 f2 a5 bc 84 9d 24 3d
       -0.09058381 -0.08639588 -0.020257428 0.04018928
000120 16 ae ba bd c7 e3 03 be 90 de e9 bc ee d6 c8 bd
       -0.091152355 -0.12879859 -0.028548509 -0.098066196
000130 a4 3a 1a bd e8 f4 54 bc 12 5b 06 bd 18 3c 01 3d
       -0.03765358 -0.012997843 -0.032801695 0.03155145
000140 59 41 2f bc da b0 07 be 30 a2 99 3c 89 c4 5f bb
       -0.010696732 -0.13251057 0.018754095 -0.0034144244
000150 04 b0 a1 3d ea e1 0c bc f2 1e e9 3d 59 82 7a bd
       0.078949004 -0.008598784 0.113828555 -0.061159465
000160 51 44 f1 bd fd de b1 bd 22 ee cc bd e4 4e 5e bd
       -0.117806084 -0.0868511 -0.10006358 -0.054274455
000170 b6 61 ec bd 2d c1 3f 3c 5a 33 86 3c 4e 64 8d bd
       -0.115420744 0.011703772 0.016381908 -0.06903897
000180 78 81 c4 3b ee 5e 3d 3d 6c 25 6f 3d 16 6f 44 bc
       0.005996879 0.04623311 0.058385298 -0.011989376
000190 72 e6 d7 bd 94 95 90 bc 3a f4 e1 3b 88 29 81 3d
       -0.10542001 -0.01764945 0.006895569 0.063067496
0001a0 34 a3 8f 3c 8a c6 e9 bc 90 d6 14 3d 90 45 02 3d
       0.017533876 -0.028537054 0.036337435 0.03180462
0001b0 8c 15 0c bc a8 90 aa bd cc 50 33 3c 7b 63 e8 bc
       -0.008550059 -0.08328372 0.010944556 -0.028367748
0001c0 92 29 d7 3d dc e5 4a bd d8 e3 3e bd 8a 27 09 be
       0.10505976 -0.049535617 -0.046604007 -0.13393989
0001d0 dc 49 02 bc d4 cb 09 bd 85 23 82 3d 6b fd f3 3c
       -0.00795218 -0.03364165 0.06354431 0.029783925
0001e0 6d 0d a4 3d df 9f d0 3d 31 c5 d6 bd 9c 2d fe 3c
       0.08010373 0.10186743 -0.1048683 0.031027608
0001f0 f6 74 72 3d d4 46 be bd 48 06 cf bc 8d 07 61 bd
       0.059193574 -0.09290853 -0.02527155 -0.05493884

fc.3.bias f4 [2]
000000 55 01 86 bd 92 2e 57 3b
       -0.06543223 0.0032834155
